music/data/model.pt (torch, 7552 bytes, 4 tensors)

fc1.weight f4 [100, 9]
-0.1690495 0.181023 0.46976024 -0.1756879 -0.19299029 0.06911069 0.17085302 0.0011877945
0.32899028 0.5910949 0.52656925 0.03211282 -0.44006905 0.2130958 -0.074605696 0.08042287
0.06834365 0.030849503 -0.33692065 0.39882597 0.07893868 -0.35992828 0.1793082 0.44526622
-0.3518199 -0.16130055 0.062129453 0.24099374 -0.21474755 -0.29256424 -0.114306055 -0.16497931
-0.16181716 -0.2574235 0.0065575046 -0.29739806 0.5175215 0.5782089 -0.32369116 0.42278516
-0.0011414636 -0.20141447 0.3706253 -0.05321244 0.025399458 -0.28515357 -0.25489601 -0.1810128
-0.2395651 -0.07593863 0.2396853 -0.2703471 0.060242496 -0.2818513 0.256684 -0.32277778
-0.46777484 0.28054038 -0.32051688 0.23435299 -0.28604704 0.19520847 -0.083189815 -0.4327771
0.47186834 -0.07883733 0.35065776 0.3317552 0.32637703 0.43263316 0.011546462 0.49050406
-0.1845193 -0.055186663 0.41644576 -0.08887275 -0.13842447 0.0026238104 0.3348569 0.19153191
0.19798863 0.03349481 -0.021096248 -0.25991362 -0.16792777 -0.043375816 -0.019852124 0.3057162
0.0087623345 -0.027285416 -0.25417492 -0.3131599 0.38643438 0.072305076 0.2620729 0.39701068
-0.46369526 0.3570756 0.38373098 0.27705806 -0.45375633 -0.3361788 -0.35732523 0.18154192
0.08770376 0.045169484 0.23982678 0.049615957 0.4879614 0.50384796 -0.3837016 -0.7764175
-0.30162305 0.071270846 -0.33800572 0.20669425 0.34312806 0.39185417 0.21126068 -0.44274
-0.60918736 -0.34394404 -0.0038750507 -0.8134202 0.4404485 -0.25077355 -0.027288415 0.28851956
0.3297773 -0.5245215 0.20037933 0.12709904 -0.09149463 0.039985448 -0.06278579 0.46893692
0.63332343 -0.4371064 0.018639715 -0.04850991 -0.06722622 0.4478613 -0.11503742 -0.025382502
-0.27390808 -0.28672862 0.012026562 0.32063302 0.133562 -0.27429983 0.34649292 0.26554108
0.047675837 0.04323005 0.04879615 -0.06373149 -0.3237713 -0.25226617 0.26183426 0.60337806
-0.07978665 0.10301028 0.37605935 -0.5130008 0.014403352 -0.045808382 -0.48339552 0.20682931
-0.11486756 0.3885372 0.14468051 -0.54280174 0.1852995 0.632251 0.13545267 0.32022476
0.30468178 0.5058108 -0.07911974 -0.016240295 0.5451697 -0.15805249 -0.29683337 -0.17114979
0.08439352 0.0240383 -0.46431628 0.46346194 -0.37629077 0.14933978 0.15334724 0.123496525
0.33830595 0.27507034 -0.3537535 0.81516486 -0.104370736 -0.23226616 0.46929803 0.36857668
-0.12743118 0.28805333 0.30210578 -0.033132963 0.28776366 0.1307076 -0.35931522 0.13256337
0.67901635 -0.38080394 -0.3831369 0.1925277 0.12870917 0.08354554 -0.17628637 0.033811383
0.55246687 0.22764294 -0.3822856 0.34254405 -0.17639595 0.11776799 -0.036362458 0.1645298
-0.40337354 0.35327223 -0.5470621 0.2664365 0.5139134 0.29884332 -0.10838194 0.21961278
-0.27815357 0.13437939 -0.65289354 -0.5112308 0.44914782 -0.12147844 -0.17779092 0.4295065
-0.26738006 0.06301268 -0.21955867 -0.29131818 -0.41956195 0.44582403 -0.16220509 -0.12919734
-0.08442297 0.34181675 0.3756654 0.18718468 -0.19736576 -0.22620985 -0.238942 -0.05766841
00000000: 501b 2dbe 185e 393e 6a84 f03e 87e7 33be
00000010: 3f9f 45be e889 8d3d 18f4 2e3e c5af 9b3a
00000020: 6a71 a83e ff51 173f 3ecd 063f bb88 033d
00000030: bb50 e1be c935 5a3e dfca 98bd bfb4 a43d
00000040: c1f7 8b3d 19b8 fc3c dd80 acbe eb32 cc3e
00000050: 9aaa a13d 8548 b8be 929c 373e eff9 e33e
00000060: bd21 b4be f92b 25be 747b 7e3d 10c7 763e
00000070: c8e6 5bbe fbca 95be 4b19 eabd 56f0 28be
00000080: 66b3 25be 03cd 83be 56e0 d63b 8f44 98be
00000090: 4a7c 043f 8005 143f d9ba a5be 4c77 d83e
000000a0: 2a9d 95ba 983f 4ebe 99c2 bd3e 4af5 59bd
000000b0: 8612 d03c a6ff 91be bb81 82be 6b5b 39be
000000c0: 8e50 75be b685 9bbd 1070 753e ef6a 8abe
000000d0: d6c0 763d d04e 90be 166c 833e 2143 a5be
000000e0: 2f80 efbe fda2 8f3e ca1a a4be 3bfa 6f3e
000000f0: c274 92be bbe4 473e 6c5f aabd f694 ddbe
00000100: ba98 f13e 7775 a1bd 6a89 b33e d1db a93e
00000110: e41a a73e 1882 dd3e 5f2d 3d3c 5923 fb3e
00000120: a1f2 3cbe 690b 62bd 6138 d53e eb02 b6bd
00000130: 25bf 0dbe 3cf4 2b3b 5d72 ab3e f120 443e
00000140: 88bd 4a3e db31 093d 0ad2 acbc 6613 85be
00000150: 42f5 2bbe d7aa 31bd eca0 a2bc d586 9c3e
00000160: e58f 0f3c aa85 dfbc 3723 82be 7f56 a0be
00000170: bada c53e af14 943d 6b2e 863e fc44 cb3e
00000180: 7769 edbe 9dd2 b63e 6378 c43e 8eda 8d3e
00000190: c052 e8be a11f acbe 55f3 b6be 20e6 393e
000001a0: 079e b33d a303 393d 2795 753e 1a3a 4b3d
000001b0: 14d6 f93e 2efc 003f 8974 c4be 4cc3 46bf
000001c0: 566e 9abe 73f6 913d 160f adbe a8a7 533e
000001d0: 7bae af3e 1ca1 c83e b854 583e d1ae e2be
000001e0: b4f3 1bbf 6f19 b0be 90f4 7dbb 4e3c 50bf
000001f0: 7782 e13e 6465 80be f48b dfbc d6b8 933e
00000200: 92d8 a83e 0b47 06bf 3d30 4d3e 4026 023e
00000210: 8961 bbbd c8c7 233d d695 80bd 8018 f03e
00000220: 7c21 223f 69cc dfbe 51b2 983c 54b2 46bd
00000230: e7ad 89bd 144e e53e bd98 ebbd f7ee cfbc
00000240: ae3d 8cbe 18ce 92be 0f0b 453c 032a a43e
00000250: 7ac4 083e 0771 8cbe 8567 b13e 00f5 873e
00000260: bd47 433d fe11 313d 79de 473d a885 82bd
00000270: 5ac5 a5be 0829 81be 240f 863e fc76 1a3f
00000280: 2f67 a3bd 0ef7 d23d da8a c03e 0554 03bf
00000290: 09fc 6b3c 92a1 3bbd 9e7f f7be 10cb 533e
000002a0: af3f ebbd 59ee c63e 2127 143e 0ef5 0abf
000002b0: 27bf 3d3e 34db 213f 1bb4 0a3e 80f4 a33e
000002c0: 40ff 9b3e d17c 013f 8809 a2bd 5e0a 85bc
000002d0: 3e90 0b3f 83d8 21be 8bfa 97be e441 2fbe
000002e0: 83d6 ac3d f8eb c43c ddba edbe e24a ed3e
000002f0: 2fa9 c0be 87ec 183e 0f07 1d3e bfeb fc3d
00000300: 7036 ad3e 05d6 8c3e 2e1f b5be a5ae 503f
00000310: 53c0 d5bd 2ed7 6dbe d547 f03e 15b6 bc3e
00000320: 527d 02be ba7b 933e 9cad 9a3e 6eb6 07bd
00000330: c255 933e 37d8 053e 2af8 b7be b1be 073e
00000340: 04d4 2d3f bcf8 c2be 852a c4be fb25 453e
00000350: 56cc 033e ed19 ab3d 6a84 34be ce7d 0a3d
00000360: 786e 0d3f 3b1b 693e f0ba c3be ef61 af3e
00000370: 24a1 34be 5830 f13d cdf0 14bd 807a 283e
00000380: fa86 cebe 19e0 b43e 430c 0cbf 5d6a 883e
00000390: d48f 033f fe01 993e 5af7 ddbd 2ce2 603e
000003a0: 256a 8ebe c09a 093e 0824 27bf 06e0 02bf
000003b0: b4f6 e53e b0c9 f8bd d30e 36be 47e8 db3e
000003c0: 0ae6 88be cb0c 813d fdd3 60be a827 95be
000003d0: d3d0 d6be 0c43 e43e 1719 26be 4f4c 04be
000003e0: f3e5 acbd 9b02 af3e 3757 c03e 57ad 3f3e
000003f0: 401a 4abe 8ea3 67be 36ad 74be b635 6cbd

fc1.bias f4 [100]
0.1261677 -0.085507005 0.15176772 -0.24857008 0.21427274 -0.23404491 0.43913922 -0.25953123
0.17909041 -0.08374911 -0.15275092 -0.23565926 0.03663077 0.52377063 0.18013191 0.29899204
0.48423892 -0.26774272 0.14906536 -0.091180705 0.43345904 0.3040142 0.09510729 0.22073965
0.41038597 0.34190524 0.19959159 0.24718311 -0.13848281 0.11220633 0.20244694 0.23529252
0.22321981 -0.017659305 -0.17455846 -0.18567315 0.05499532 0.38935223 0.10030332 -0.36647445
0.38182324 -0.009819625 0.096220076 0.024247777 0.011132421 0.042224806 0.22246492 0.23268569
0.32658264 -0.0790111 -0.16290925 0.3958728 -0.30541873 0.34783858 0.44516572 -0.17911267
-0.2622102 0.020729303 0.4681196 0.39289004 0.04971365 0.06534182 0.15848878 0.26775715
0.02917647 0.2514944 -0.17037308 0.09914837 -0.13879302 0.3175762 -0.18263993 -0.32245228
0.06044503 -0.031417467 -0.05000045 -0.029785624 0.52539355 0.13464765 0.2909666 0.09259329
-0.19080354 0.21276374 -0.0040005227 -0.18256424 -0.026476702 -0.07906795 0.33547434 0.05931368
0.115050524 0.48508745 -0.06190472 -0.2995945 -0.27351317 -0.29159582 -0.18253922 -0.21517049
0.0288688 0.4194235 0.19910938 0.1557691
00000000: 1b32 013e 4c1e afbd ff68 1b3e 2889 7ebe
00000010: 506a 5b3e 78a9 6fbe dbd6 e03e 47e1 84be
00000020: 7a63 373e a784 abbd bd6a 1cbe a950 71be
00000030: 250a 163d d515 063f 8074 383e 7c15 993e
00000040: 2aee f73e 9315 89be 97a4 183e f3bc babd
00000050: 58ee dd3e c0a7 9b3e 9cc7 c23d 9309 623e
00000060: 1c1e d23e 340e af3e bd61 4c3e 921d 7d3e
00000070: 70ce 0dbe 6fcc e53d 404e 4f3e 86f0 703e
00000080: bc93 643e 3faa 90bc 74bf 32be 1a21 3ebe
00000090: c642 613d 2d59 c73e d46b cd3d 8aa2 bbbe
000000a0: 567e c33e 7ee2 20bc 080f c53d 46a3 c63c
000000b0: c264 363c ebf3 2c3d d8cd 633e 2845 6e3e
000000c0: d735 a73e 92d0 a1bd afd1 26be d7af ca3e
000000d0: d85f 9cbe e617 b23e c3ec e33e 5069 37be
000000e0: 6a40 86be 80d0 a93c 5fad ef3e e228 c93e
000000f0: 8aa0 4b3d efd1 853d e24a 223e 7717 893e
00000100: 7e03 ef3c e0c3 803e 4876 2ebe 4d0e cb3d
00000110: c21f 0ebe 5999 a23e f605 3bbe 7718 a5be
00000120: 3595 773d 9aaf 00bd 46cd 4cbd fb00 f4bc
00000130: 3180 063f 13e1 093e 93f9 943e 8da1 bd3d
00000140: 0162 43be bdde 593e d116 83bb 1ff2 3abe
00000150: abe5 d8bc 61ee a1bd 4bc3 ab3e e7f2 723d
00000160: 9c9f eb3d 625d f83e ce8f 7dbd 7364 99be
00000170: eb09 8cbe 0c4c 95be 90eb 3abe a755 5cbe
00000180: 437e ec3c adbe d63e 54e3 4b3e ef81 1f3e

fc2.weight f4 [4, 100]
0.11554614 -0.43339992 0.147231 0.028150499 -0.33637294 0.05969579 -0.1231466 0.12677608
0.09414007 0.0056451573 0.2837545 -0.10810723 -0.44484523 -0.45869097 0.12633292 -0.4306628
0.26244316 -0.34944603 0.0113161495 0.4141948 -0.3817394 -0.14672725 -0.3626657 -0.42807293
-0.32190594 0.035572227 0.22123286 0.27712056 0.029057968 0.35745272 -0.24398798 0.17807093
-0.57093203 -0.4370295 0.19878311 0.25876158 -0.46718222 -0.21851842 -0.18697369 -0.06579784
0.06685077 0.24736015 0.029212136 0.1552186 -0.25456998 0.13744727 -0.16895656 -0.1970712
0.028898409 -0.2295705 0.026479635 -0.27873394 0.028496636 -0.20926619 -0.07549299 0.26946074
-0.09875106 -0.23756613 -0.13737497 -0.037373487 0.3323355 -0.269695 -0.46205568 0.19136676
-0.14314805 -0.23750395 -0.0032045126 -0.20039006 0.1404222 0.16701601 -0.16041389 0.07577057
0.3269301 0.16079856 -0.038433574 0.05018338 -0.41634387 -0.37551206 -0.3744705 -0.33447686
-0.40207312 -0.26403362 0.23826315 -0.3455831 0.007210064 0.22539024 -0.52581465 0.0692417
-0.034178454 -0.2693243 -0.48814481 -0.016858464 0.00066818495 -0.04770049 0.07546949 0.020626703
0.29880473 -0.18344271 -0.029811457 -0.4161299 -0.23052835 -0.30118307 -0.2999117 0.088474505
0.2353679 -0.06283957 0.27918753 -0.27276173 -0.07536105 -0.082454845 -0.21214353 0.27698034
-0.46537742 0.033292208 -0.303944 0.14972141 0.38881162 0.28490993 0.079867706 -0.4213558
0.27237153 0.36962634 0.27903733 -0.31676275 0.11871754 0.23225896 -0.18106866 -0.17347549
0.06613495 -0.033537384 0.17272174 -0.19006644 -0.10679692 0.16031124 -0.3066451 -0.059891984
0.43386927 0.25250852 0.17116755 0.0086564785 -0.20846908 -0.3512822 -0.12276603 -0.2841801
-0.27822992 0.099345356 0.35932538 0.2840697 -0.19677426 -0.023724318 -0.028431565 0.31056347
-0.07943382 0.2342543 0.448333 -0.19115509 -0.016892206 0.30919787 0.13837108 0.10687157
-0.21512109 0.33139277 0.38197693 -0.23797217 0.4118335 0.26737624 -0.06346591 -0.3010493
-0.40918687 -0.2635203 -0.008365095 -0.09589447 -0.0439533 -0.31973282 0.120135985 -0.073134184
0.3068457 0.38665915 -0.14464717 -0.13116209 -0.3050423 0.12199177 -0.15684758 0.26675037
-0.093824975 0.13834326 -0.06739076 -0.16063324 0.07043143 0.17377304 -0.36606792 0.025577592
-0.05192307 -0.04157945 0.0061681867 0.04551935 -0.29556382 0.22798799 -0.113957286 0.08346474
0.084388345 0.2722063 0.04997304 0.028275026 0.2813111 -0.08736614 -0.32721955 0.34517416
-0.06903047 -0.052458417 -0.1511213 -0.14454539 0.18064125 -0.11772081 0.066793464 0.3103212
-0.27757096 0.2942781 -0.4183835 0.011104395 -0.41246983 0.2711765 0.063254505 0.34450316
-0.07378134 -0.2932564 -0.43389782 -0.22098212 0.09749108 -0.3539077 -0.26915926 -0.13735989
0.33096957 0.17920513 0.19181298 0.0022754723 0.12796389 -0.34330592 -0.10852153 -0.001391234
-0.28722546 -0.014221153 0.120049305 0.11765359 0.35366222 -0.3649261 -0.09058903 -0.14462858
-0.18758373 0.42567205 0.26226375 -0.4236483 -0.042227793 -0.28371304 -0.50203836 -0.09750711
00000000: 74a3 ec3d 98e6 ddbe b9c3 163e e09b e63c
00000010: 1339 acbe 9383 743d 4934 fcbd 97d1 013e
00000020: 82cc c03d 03fb b83b 4548 913e 5367 ddbd
00000030: c1c2 e3be 8bd9 eabe 6b5d 013e d67f dcbe
00000040: f35e 863e 97ea b2be 5f67 393c 5711 d43e
00000050: 5973 c3be ab3f 16be 52af b9be 602c dbbe
00000060: dbd0 a4be 2fb4 113d de8a 623e bfe2 8d3e
00000070: fa0a ee3c 0b04 b73e fcd7 79be 3a58 363e
00000080: 9a28 12bf 55c2 dfbe cd8d 4b3e 667c 843e
00000090: 8232 efbe 4bc3 5fbe 0876 3fbe 05c1 86bd
000000a0: 0ee9 883d fb4b 7d3e 4a4e ef3c a0f1 1e3e
000000b0: ff56 82be fabe 0c3e f302 2dbe 08cd 49be
000000c0: 5bbc ec3c 8714 6bbe d2eb d83c 37b6 8ebe
000000d0: c771 e93c e049 56be 129c 9abd c2f6 893e
000000e0: ff3d cabd 8944 73be 06ac 0cbe f114 19bd
000000f0: e127 aa3e 7715 8abe 9092 ecbe a6f5 433e
00000100: 6795 12be 3c34 73be cd02 52bb 0d33 4dbe
00000110: d6ca 0f3e 3f06 2b3e 8a43 24be 9a2d 9b3d
00000120: 6263 a73e 61a8 243e 866c 1dbd 168d 4d3d
00000130: 062b d5be 1e43 c0be 99ba bfbe 8d40 abbe
00000140: 87dc cdbe 6a2f 87be 41fb 733e 45f0 b0be
00000150: 6742 ec3b b3cc 663e ca9b 06bf 98ce 8d3d
00000160: b5fe 0bbd e0e4 89be 1eee f9be c31a 8abc
00000170: 2229 2f3a 9761 43bd bf8f 9a3d 55f9 a83c
00000180: effc 983e 68d8 3bbe 2837 f4bc fa0e d5be
00000190: a00f 6cbe ab34 9abe 078e 99be 1f32 b53d
000001a0: 4804 713e 08b2 80bd abf1 8e3e 6da7 8bbe
000001b0: e556 9abd 16de a8bd 273c 59be 5ed0 8d3e
000001c0: f345 eebe 695d 083d 8c9e 9bbe 9250 193e
000001d0: 5112 c73e b7df 913e ae91 a33d f3bb d7be
000001e0: 4874 8b3e aa3f bd3e fbdd 8e3e ba2e a2be
000001f0: 2e22 f33d 4bd5 6d3e 106a 39be 8fa3 31be
00000200: c371 873d 7f5e 09bd f8dd 303e c7a0 42be
00000210: 58b8 dabd a128 243e 9600 9dbe 4c51 75bd
00000220: 1d24 de3e cc48 813e 8c46 2f3e e7d3 0d3c
00000230: eb78 55be 43db b3be c26c fbbd 0e80 91be
00000240: 2774 8ebe 9475 cb3d 7ff9 b73e 9571 913e
00000250: 317f 49be 8059 c2bc 50e9 e8bc 2d02 9f3e
00000260: 33ae a2bd 5ce0 6f3e e78b e53e 29be 43be
00000270: 8661 8abc 2f4f 9e3e 26b1 0d3e 7bdf da3d
00000280: b448 5cbe 50ac a93e 7b92 c33e faae 73be
00000290: d7db d23e 8ae5 883e 6afa 81bd 2223 9abe
000002a0: f180 d1be 22ec 86be c00d 09bc 5264 c4bd
000002b0: 6008 34bd 05b4 a3be db09 f63d 60c7 95bd
000002c0: e11a 9d3e 30f8 c53e 631e 14be 5b4f 06be
000002d0: 812e 9cbe d2d6 f93d a79c 20be 8193 883e
000002e0: 4f27 c0bd dba9 0d3e 2b04 8abd 0a7d 24be
000002f0: 5b3e 903d 8ff1 313e 416d bbbe 1988 d13c
00000300: 49ad 54bd 374f 2abd 801e ca3b 7f72 3a3d
00000310: 2454 97be af75 693e 7062 e9bd 90ef aa3d
00000320: ccd3 ac3d a05e 8b3e 88b0 4c3d 07a1 e73c
00000330: 0208 903e 05ed b2bd 5289 a7be abba b03e
00000340: d95f 8dbd a3de 56bd 8bbf 1abe b503 14be
00000350: 05fa 383e 9c17 f1bd 03cb 883d 6ce2 9e3e
00000360: c81d 8ebe 9eab 963e 5d36 d6be 35ef 353c
00000370: 3f2f d3be a5d7 8a3e 948b 813d b862 b03e
00000380: ac1a 97bd b425 96be db27 debe 2349 62be
00000390: 67a9 c73d 6433 b5be 3ecf 89be 12a8 0cbe
000003a0: d874 a93e 8d81 373e 9f6a 443e 1720 153b
000003b0: f708 033e cbc5 afbe 8940 debd 115a b6ba
000003c0: 370f 93be d7ff 68bc 69dc f53d 5ef4 f03d
000003d0: 3713 b53e 98d7 babe be86 b9bd 8419 14be
000003e0: f315 40be b0f1 d93e 6f47 863e 6ee8 d8be
000003f0: 0df7 2cbd d642 91be 9685 00bf cfb1 c7bd

fc2.bias f4 [4]
-0.045404907 -0.0150474 -0.08511691 -0.044839364
00000000: 7ffa 39bd 5f89 76bc c651 aebd 7ba9 37bd
