music/data/model.pt (torch, 7552 bytes, 4 tensors)

fc1.weight f4 [100, 9]
00000000: 7ef9 58bd 72b3 ce3e ef00 273e 28a6 303e
00000010: 47e9 d73e c17c 3a3d 3af4 02be 206c 95bd
00000020: 4e9b 95bd 5d12 8fbe 5fda c4be 7b63 053f
00000030: 1eaa fe3e a8ef b13e 077c 35be d335 603e
00000040: 5580 ff3e 31d6 05be 677c 453d 514e 163f
00000050: 16db 833c a125 d7be ed16 d73c f0d5 eb3c
00000060: 83d9 9c3e 736e 3dbe dd3a 6b3e 2533 22bf
00000070: 24e6 873e f4d5 f53e f4a6 023f 2b2f 773e
00000080: 4230 923e 6dd2 fa3e 7dfc 42be 22cb c73e
00000090: f2f2 1d3f e7cd 093f 106e c1be 509b 9fbe
000000a0: a3cc 2b3c c5d9 de3e 23da 6dbe 3ecc 453e
000000b0: f62f 40be 1ff1 123d a0c1 4abe 4052 96bd
000000c0: a1b3 a8bc 7838 823e 1713 9ebe 62f7 1f3e
000000d0: 4c28 a53e d24b 03be 5413 e93e eb39 b83d
000000e0: 4914 9cbd 8b54 59bf d2bb 13ba 7977 3d3e
000000f0: a5c8 4fbe 83b8 20be 3155 bb3c 0c5c 1dbf
00000100: f0ec b0be 2caa 103f 3346 a73e c953 203e
00000110: 9e47 8f3e 62b2 ee3d 0c80 0e3e 7c0c d63e
00000120: c214 923e 7aa7 2a3e 4929 273e e6fe 97bb
00000130: 5ea2 cfbe fe64 c03e e7bc 37bf d2e3 483e
00000140: 6280 35be 6edf 1ebf 1c80 773e d231 72bb
00000150: 3721 bfbd e5de 063e f53f d53e cbdf 9a3e
00000160: bc4a e13e 5f0c 7f3e f298 173f ea42 413e
00000170: 4873 8d3d 3e12 28bf 2b66 93be a05b 693e
00000180: 0785 42bf 7b68 b9bd 6d65 efbc 3b13 ea3e
00000190: faa4 113e 6756 e3be a0ac 073e 5308 3dbd
000001a0: d998 61be 2feb a93e fdd0 f53d 54b2 1abe
000001b0: b00e 863e 5095 98be 88a2 da3d 60ff e83e
000001c0: 37b7 433e 3593 3bbe e177 943d a388 af3e
000001d0: 6396 37be 3902 793e 66ae 323f 90e2 bd3e
000001e0: b860 bebe 1270 c23e 31db 7c3d 1d57 02bc
000001f0: 5726 72be a306 143f d6a2 eb3c bd08 233f
00000200: fc52 7fbe 00b5 063f 201e c33e 2e59 06be
00000210: 2aca 3c3e 196f 0b3d 63e2 92bc b3a7 203f
00000220: f49a bdbe cc64 6bbe 0e91 b63e 253e f3bd
00000230: 1ae4 a53c 481c 8a3e 1920 0c3f b130 edbd
00000240: da16 283f 7226 e03e ce32 d0be 5a0c 28bd
00000250: 42ea a1bd 0720 cebd 90d6 98be bc0e 533d
00000260: 0787 453e 8d54 1f3f d7d6 71be c827 25be
00000270: 6331 96bd f892 c2be 842d 153f 8561 bcbe
00000280: bb97 7bbd 1868 b2be 1563 93be 3135 1a3e
00000290: 8d7d 9f3e 32bc 923d ce69 a23e fd20 a9bd
000002a0: 9000 133f c5c1 bd3d 3a7f a93e 5e72 53bd
000002b0: 4964 ca3e 0832 383e 4700 05bf bed4 debb
000002c0: b85b f6bd 109d 8c3d 4d4b c73e 5838 0b3f
000002d0: 5820 563e d9f6 423d 4e78 b8bd f53a 933e
000002e0: e765 ac3e 9396 a4be ce65 14bd bfcd 153e
000002f0: 2d04 1dbf d468 4abe 303f 733e e918 e63e
00000300: 10f5 db3e e05b ac3e 342f 143e 6525 953e
00000310: 6c0a 85be 3313 863e 0de6 e9bd 49e0 3b3f
00000320: c331 873e cec3 7dbd f239 063f b508 b03d
00000330: 3e8b 353e f385 99bd 3121 ae3e 14df 0f3f
00000340: 8104 223f f5b9 66be e49e 28bf b33b 70be
00000350: e3a6 293e d0a0 c73d 826a 1dbe 3683 c63e
00000360: bbd9 1a3f e09b eebd 94db 94be af51 bdbe
00000370: fa77 d9bd 209b de3d 3c13 dabd c98f 0abd
00000380: c80b 833e 683d 16bd 1921 823b c5c0 383e
00000390: 260c abbe 9ee9 613e 3f6b cc3e d69b c8be
000003a0: b6d8 2e3d 8ca2 56bc c862 87be 4de9 a5bd
000003b0: 8c9c d43e 5905 b2bd 3a12 42be 00e0 0b3e
000003c0: 76fd 463e ba4d 083e d0fe da3d 6706 a73e
000003d0: 16af b2be 7f18 e83d f9c6 e13e 3a03 ce3b
000003e0: 936d 613e 0ebe 34be 16c2 833e 650c 88be
000003f0: cffb 683e 2695 39be e140 9ebe 09be 043f
-0.05297231 0.4037128 0.1630895 0.17250884 0.42170164 0.04552913 -0.12788478 -0.07296014
-0.07305013 -0.27943698 -0.38447854 0.5210492 0.49739164 0.34753156 -0.17723094 0.21895532
0.49902597 -0.13069989 0.048214342 0.5871325 0.01609568 -0.42020896 0.026256049 0.028788537
0.30634698 -0.18499164 0.22971673 -0.6335929 0.2654277 0.48014796 0.51036 0.24139087
0.28552443 0.48988667 -0.19041629 0.39022166 0.6169883 0.5382981 -0.37779284 -0.31173182
0.010485801 0.4352552 -0.23227744 0.19316193 -0.18768296 0.035874482 -0.19800425 -0.07339907
-0.020593466 0.25433707 -0.3087394 0.15621713 0.32257307 -0.12821892 0.4552256 0.08995422
-0.076210566 -0.8489463 -0.00056355924 0.18502606 -0.20291384 -0.15695386 0.02286777 -0.6146858
-0.3455577 0.5650966 0.32670745 0.15656962 0.27984327 0.116551176 0.13916034 0.418064
0.28531462 0.1666545 0.16324343 -0.0046385406 -0.40553564 0.3757705 -0.7177262 0.19618157
-0.17724755 -0.62059677 0.24169964 -0.0036955965 -0.09332507 0.13170965 0.41650358 0.30248865
0.4400233 0.24907063 0.5921775 0.18873182 0.06906754 -0.65652835 -0.28788885 0.22788858
-0.75984234 -0.09053131 -0.029223168 0.45717797 0.1422309 -0.44401857 0.13249445 -0.046150517
-0.22030963 0.33187243 0.12002752 -0.1510709 0.2618308 -0.29801416 0.106755316 0.45507336
0.1911286 -0.18317874 0.072494276 0.34283933 -0.17928462 0.24317254 0.6979736 0.37086916
-0.37183166 0.37976128 0.061732475 -0.00795534 -0.23647438 0.57822627 0.02876417 0.6368521
-0.24934 0.52619934 0.3810892 -0.13119957 0.18436494 0.034041498 -0.017930215 0.6275589
-0.37032282 -0.2298767 0.35657543 -0.118770875 0.020250369 0.26974702 0.5473648 -0.11581553
0.6565987 0.4377933 -0.4066376 -0.041027404 -0.07906009 -0.100647025 -0.29851198 0.051527724
0.1928979 0.6223839 -0.23617111 -0.16128457 -0.073336385 -0.38002753 0.58272576 -0.36793151
-0.061424 -0.34845042 -0.2878653 0.15059353 0.31150475 0.07164802 0.31721348 -0.08258245
0.57422733 0.09265474 0.3310488 -0.05162274 0.39529637 0.17987835 -0.5195355 -0.006800263
-0.12029213 0.06865895 0.38924637 0.5438285 0.20910776 0.047598694 -0.09007321 0.28755918
0.33671495 -0.3214613 -0.0362299 0.14629267 -0.61334497 -0.19766551 0.23754573 0.4494088
0.42960405 0.33663845 0.14471132 0.29130092 -0.25984514 0.26186523 -0.11420832 0.73389107
0.26405153 -0.061954312 0.5243217 0.08595411 0.17728898 -0.07496252 0.34009698 0.56199765
0.6328812 -0.22531874 -0.6586745 -0.23460273 0.16567568 0.097474694 -0.15372661 0.3877198
0.6048848 -0.116508245 -0.29073775 -0.36976382 -0.10618587 0.108694315 -0.106482 -0.03382853
0.25594926 -0.036679655 0.0039712307 0.18042286 -0.33407706 0.22061774 0.39925572 -0.39181393
0.04268714 -0.013100278 -0.26442552 -0.08101139 0.41525686 -0.08692426 -0.18952265 0.13659668
0.19432625 0.133109 0.10693133 0.32622072 -0.34899205 0.11332797 0.44097117 0.0062870057
0.22014455 -0.17650625 0.25734013 -0.26571956 0.22752307 -0.18123302 -0.30908874 0.5185247

fc1.bias f4 [100]
00000000: 8f1f 41be 3ad3 3c3e 01ef 2d3e a15b c9bd
00000010: 0724 40be a80c 72be e3bd 833e bb1e 20bd
00000020: 02ca 803e aeb6 00bd ec91 803d 3839 8dbd
00000030: ad12 353e 572e 19be 8077 4a3b 81a5 353e
00000040: 2643 963e b216 e83d 8fcb 26bd c380 b83d
00000050: 1019 df3e f122 78be 98d0 7cbe 05e0 e73d
00000060: c6de 7f3e 1718 723d 79a0 b93d dc5a 893d
00000070: 78ba e73d f98e e03e 3e78 02be 1376 04be
00000080: 7e48 5d3e b580 14bd 8a18 cc3e 9028 4ebd
00000090: 3c05 2fbe d775 7f3e 9b12 2ebe 0a8d 9ebe
000000a0: 2dc6 623e 84e4 663e 2c55 5f3e 450e abbe
000000b0: f797 c83d 4f75 cd3c 92f0 c6bd bb0a 63be
000000c0: d5e7 003e 5d08 12be 41e7 13bc 05be 4b3e
000000d0: c062 e1bd 714d d83d f41c 82be 5674 d33d
000000e0: 5154 86bd 566b 093d 74c5 423e 2e24 133e
000000f0: a552 033e 0db6 673e 90db 5e3b 39ac 2c3e
00000100: 36e5 5e3d a6c9 173e 4bec f43e 9ca1 b73d
00000110: e510 d63e ac8b 203d bc43 ab3d 036d b93e
00000120: a721 573e 8861 10be 9471 aa3d 55d2 233e
00000130: d5b0 74be 93fa 093e fd1e f1bd d6cf debd
00000140: 824c cfbd 8721 3ebe 9048 a1be 1b7a a7bd
00000150: 0d4a b6bd ce36 813d 4d81 21be be9c aa3d
00000160: b164 903e a4af 37be 482d a33e a24f b8be
00000170: 8716 0d3f 2d88 60be 5960 9c3e 0959 c63d
00000180: c517 5abd 6c8d ea3e fcdc 0e3f 7c08 ff3d
-0.18859695 0.18439952 0.16985704 -0.0983193 -0.18763743 -0.2363764 0.2573081 -0.039091807
0.2515412 -0.031424217 0.062778324 -0.06895679 0.17682905 -0.14959083 0.0030893981 0.17738916
0.29348105 0.11332454 -0.040721472 0.09008934 0.4357381 -0.24232079 -0.24688947 0.11322025
0.24987325 0.059105005 0.09063811 0.06706783 0.11314863 0.4385908 -0.12741181 -0.12935667
0.21609685 -0.036255557 0.39862472 -0.050331652 -0.1709184 0.24947296 -0.16999285 -0.3096698
0.2214591 0.2254811 0.21809834 -0.33409324 0.0979461 0.025080351 -0.09713854 -0.22172062
0.12588437 -0.14261003 -0.009027303 0.19896705 -0.11005163 0.10561646 -0.25412714 0.10324924
-0.06559051 0.03354963 0.19020635 0.1436927 0.12824495 0.2262804 0.0034005381 0.16862573
0.05441781 0.14823017 0.47836527 0.089663714 0.41809765 0.0391957 0.08362529 0.36215982
0.21008931 -0.14099705 0.083224446 0.15998204 -0.23895581 0.13474493 -0.11773489 -0.10879485
-0.101220146 -0.18567477 -0.31500673 -0.08177587 -0.08900843 0.06309281 -0.1577198 0.083306774
0.2820182 -0.17938095 0.31870484 -0.35998255 0.551125 -0.21926947 0.30542257 0.09684951
-0.053245325 0.4581102 0.55805945 0.1245279

fc2.weight f4 [4, 100]
00000000: 0676 fdbd e3b4 a9be 18d7 1b3d c21f adbe
00000010: 5828 993e 4250 ea3c 948c c83e f3b8 90be
00000020: 1e2a dd3d 6b3f f3bd 254d b33e 9942 23bd
00000030: bcf2 cbbd 9b68 4d3d 06ab f4be 633f 00be
00000040: 0e3a 603e 5d24 d33e 158b bbbe eff3 943d
00000050: c32c 7cbe 8cb0 c6be 9bf9 8ebe 038e a33e
00000060: 7655 b73e 34c5 403e 6cdc 9cbd b1ce a3bd
00000070: 2694 9bbe 23ef 52be 0b41 c53d 70b5 72bd
00000080: 461c 00bf 4551 ff3d 6569 6a3e a768 62bc
00000090: 437f 983c 1bb9 003e c30f 753d 335f c63a
000000a0: bc7b 373d 2852 913e 7a16 1abc 496c dcbb
000000b0: fd03 a2bd e457 b9be fb72 c8be 77ed 643d
000000c0: abd5 1d3e 9a0d babc 09cb cf3c 3d55 ea3d
000000d0: 906a 013d 8f85 273e 823f a03e d27f a0bc
000000e0: 72b0 0fbe d1e5 02bf 3cd7 6a3d af1a 59be
000000f0: 148c d63d b361 e63c e077 dbbe adb2 dc3e
00000100: 924c 88be 972c 4dbd b1ef 263e 9348 c2be
00000110: 3826 353e 2aed a53d 816e da3e 94ef bf3e
00000120: 4f2f d83e 7dcc 1abd 0bbb dbbd 3c7e 623d
00000130: 4ed4 7d3d f2ed 65bb 4d0a 9ebe 5658 43bc
00000140: 7013 0bbf 6509 30bc 41b1 953d 6cd1 2d3e
00000150: 9e49 dfbe 5a91 aebc dfaf 7fbe 4fbc 2fbe
00000160: 0882 13be fb2f bd3d e15a 723d 4a0d 4abd
00000170: 8559 98be 4def 5cbe 4166 8cbd 934d 62be
00000180: 63ab 51be caaf b6bc 5216 e0bd 6c09 49be
00000190: b2b6 883e 3fd2 aabe 06f2 613e f86d 113e
000001a0: 34b5 673e 1467 0d3d d544 07bd caa1 11be
000001b0: cf9b 9cbd cbfb 533d a6c7 96bd eccb f0be
000001c0: 035b 08be 7769 533e e22e dc3e 2766 d6be
000001d0: 82d7 373e 5c36 b2be 438a 153e a75a 663e
000001e0: 6ca7 b0bb 4345 ab3d 0e1c a73e 0555 a03e
000001f0: 5857 f3bd 7d5d c2bd d204 a2bd 355e a1be
00000200: 6132 a3bd bccd 30be a825 8e3d e244 b83d
00000210: 444e 473d 8102 7fbe f777 90be 5099 bebd
00000220: e597 a8bd fc1e a3be 873c 913c 900d 06bd
00000230: 1eae 46bd 20b7 403e 8730 b4bd cfac 093e
00000240: e9dc 913e 5f49 00be 824e ce3d 071c 083d
00000250: 0bc2 233e 8639 05bf c55a e5be 25d2 8dbe
00000260: 7248 86bd 5515 633d ee87 0c3e 91bb f7bc
00000270: 141f 0cbe b777 ffbe 222e 433d febd 423c
00000280: 4a8f ccbd 21e6 b33d 29f2 ce3d 02ea 8cbe
00000290: 9ebe 593e 232a 2c3d 9abe 0fbf 3a8a a73e
000002a0: cd6c 86be a393 c9bb 8e48 11be 7774 1bbe
000002b0: be2a 0dbe 277c 783c 5269 b9be b94b 823e
000002c0: 8deb 0e3c bed0 163e 261a 97bc 2a96 64bd
000002d0: b32d f03d b972 163d ec3a d1bc 17e1 123e
000002e0: d03b 833c e55f dc3d 03a1 8a3e afe7 873e
000002f0: 7360 97be 5562 f13e 4967 59be 6a73 6abc
00000300: 25b8 b5be 7dc7 d53e 8dca 03be cb54 bb3d
00000310: 2670 76bd d50a cbbe 014d a6be 750b 02bf
00000320: 82ff 3bbc 96d6 ee3e f36a 8ebd bdfe 843e
00000330: c5c8 f6be 5f57 8fbc 4f66 40be 89bc 863e
00000340: 6965 40bd b42a 2b3e d540 a5be d950 243c
00000350: 23f3 0bbc 596a ccbc 7d1b cabe bc24 cebe
00000360: ab5d afbe b20d 96be 7d2b 293e 584c bb3d
00000370: 5bdf 41be abd9 a63d 69d2 bfbd 87b2 86be
00000380: 8cfd c7be 50d2 093e dbcc 923e c2a2 36bd
00000390: b960 09be ba3b 81be cdb4 5b3c 6a25 08bd
000003a0: 9de8 65be 3eda 303e df5a a0be 6fd9 83bd
000003b0: 6e2c 813e 19bb ad3d c079 7fbc 1719 553d
000003c0: 66dd 29bd d610 81be 1787 973e b9e1 213e
000003d0: 24dc 81be 2bb2 19be 3e88 20bd ada6 5bbd
000003e0: 05bf a8be ffd5 833e c420 8a3e 15aa 18bd
000003f0: 2d31 30bd 9ae2 d8be e71f 83be ff71 5b3c
-0.12376027 -0.33145818 0.038046926 -0.33813292 0.29913592 0.028602723 0.39169753 -0.28266105
0.10799049 -0.118773304 0.35019794 -0.039858434 -0.09958407 0.050148588 -0.4778673 -0.1252418
0.21897146 0.4123868 -0.3662955 0.07273089 -0.2462645 -0.3880657 -0.2792481 0.31944284
0.3580739 0.18825227 -0.0765923 -0.07998408 -0.30386466 -0.20599036 0.096315466 -0.059255064
-0.5004314 0.12466673 0.22891767 -0.013818896 0.01861537 0.12570612 0.059829485 0.0015134573
0.044795737 0.28382993 -0.009404773 -0.006726776 -0.07910917 -0.36199868 -0.39150223 0.055890527
0.15413539 -0.022711564 0.02536537 0.11442039 0.031595767 0.16359542 0.31298453 -0.0195922
-0.14032152 -0.5113192 0.05733417 -0.21201585 0.104759365 0.028122758 -0.42864895 0.4310507
-0.2662092 -0.050091352 0.16302373 -0.37945995 0.1769036 0.08101876 0.42662433 0.3748747
0.42223594 -0.03779267 -0.10729035 0.055296168 0.061970048 -0.0035084453 -0.30867234 -0.011922916
-0.54326534 -0.010744427 0.07309199 0.1697442 -0.43610853 -0.021309543 -0.24969433 -0.17161678
-0.14405072 0.09237667 0.0591687 -0.04932908 -0.29755798 -0.21575661 -0.06855441 -0.22099905
-0.20475535 -0.02230062 -0.10941757 -0.196325 0.26701885 -0.3336353 0.22064981 0.14202106
0.22627717 0.03452213 -0.033024628 -0.14221874 -0.07646906 0.0517538 -0.07362299 -0.4703058
-0.13315968 0.206457 0.4300452 -0.4187481 0.17953303 -0.34807098 0.14603524 0.22495519
-0.005391052 0.0836282 0.32638592 0.31314865 -0.11881894 -0.09490488 -0.07911076 -0.31517187
-0.079685934 -0.17265981 0.06940776 0.08997513 0.048658624 -0.24903299 -0.28216526 -0.09306586
-0.082320966 -0.31859577 0.017729057 -0.032727778 -0.048505895 0.18819857 -0.08798318 0.13444827
0.28488854 -0.12527989 0.10073568 0.033229854 0.1599199 -0.520409 -0.44795814 -0.2769939
-0.065567866 0.055440266 0.13723728 -0.030240806 -0.1368373 -0.49896023 0.047651418 0.011886118
-0.09988268 0.08784128 0.10104782 -0.27522284 0.21264121 0.042032372 -0.5615021 0.32722646
-0.26254883 -0.006151633 -0.14187834 -0.15181147 -0.13785836 0.015166319 -0.36213166 0.25448397
0.008723152 0.14728066 -0.018445086 -0.05580727 0.117274664 0.0367305 -0.025540791 0.14343677
0.016019732 0.10760478 0.27075967 0.26543948 -0.29565772 0.47145334 -0.21230806 -0.014309743
-0.35492054 0.4175376 -0.12870236 0.09147032 -0.060165547 -0.39656702 -0.32480624 -0.5079873
-0.011474492 0.4664809 -0.06953993 0.259756 -0.4820005 -0.017497716 -0.18789028 0.26315716
-0.046971712 0.16715509 -0.32276025 0.010029041 -0.008541855 -0.024953054 -0.39474097 -0.402624
-0.3425115 -0.29307324 0.16520496 0.09145421 -0.1893286 0.081469856 -0.093663044 -0.2630808
-0.39060628 0.13459134 0.28671917 -0.04458881 -0.13415803 -0.2524088 0.0134098055 -0.033238806
-0.22452016 0.17270753 -0.3131933 -0.064379565 0.2522921 0.08482952 -0.015592992 0.05202588
-0.041470908 -0.25208157 0.29595253 0.15808763 -0.25363266 -0.15009372 -0.03919243 -0.05362575
-0.32958236 0.25749204 0.26978123 -0.037271578 -0.043015648 -0.42360383 -0.25610277 0.013393878

fc2.bias f4 [4]
00000000: 9373 ca3d b310 1bbe 0c09 ad3d 82fb 093e
0.09885325 -0.15143089 0.08448991 0.13474849
